project_b/result/model_quantized_int8_io.tflite (tflite, 798816 bytes, 55 tensors)

sequential/dense_2/MatMul i1 [5, 1600] scale=0.000779136 zero_point=0
00000000: 24c5 e4d9 ba1f f21e f710 f9c8 3c1b 0ddc
00000010: 27da 16c9 0b2d 15ca efcd c746 281c d009
00000020: 1029 2b41 cd07 03e7 38ed 25fa 2c13 a827
00000030: 3b05 f6a8 15c9 ae1d 232a 2104 fae0 f2fe
00000040: 14d3 29fe f2f1 b3e6 f5ab dfcf c1b7 c14b
00000050: c904 2610 d5ea 381c e626 dd1a 2702 27f2
00000060: 0022 39d1 e213 2a1e 0ee7 fabd ed19 12a5
00000070: eff1 41cf 1918 c63d 081c 3fbf d8bf 3dbc
00000080: e637 e1e3 1dc1 2b0a d4af e85e d9da 254c
00000090: d51d 3334 03e3 2d35 1221 13f7 0314 d03d
000000a0: 021b 2346 3f13 dbd0 df04 c9c4 b4d8 bb31
000000b0: 5930 9820 2dc9 222c 2613 31db e7ba dbfb
000000c0: f702 e704 bc37 a5f5 da30 bd3e 2cbf b7e8
000000d0: 46b6 3212 0f57 fc19 3cd7 1c17 19e1 fcce
000000e0: 2f06 c7d5 1ccc beb9 0df6 e5df ff2b ca23
000000f0: c8ca c700 b4cb a428 16ee 132f 21c7 2fb0
0.028048897 -0.045969024 -0.021815808 -0.030386304 -0.05453952 0.024153218 -0.010907904 0.02337408
-0.0070122243 0.012466176 -0.005453952 -0.043631617 0.04674816 0.021036673 0.010128768 -0.028048897
0.030386304 -0.02960717 0.017140992 -0.04285248 0.008570496 0.03506112 0.016361857 -0.042073347
-0.0132453125 -0.039735936 -0.044410754 0.05453952 0.031165441 0.021815808 -0.03739853 0.0070122243
0.012466176 0.031944577 0.03350285 0.050643843 -0.039735936 0.005453952 0.002337408 -0.019478401
0.043631617 -0.014803585 0.028828032 -0.004674816 0.034281984 0.014803585 -0.06856397 0.030386304
0.045969024 0.0038956802 -0.0077913604 -0.06856397 0.016361857 -0.04285248 -0.06388915 0.022594946
0.02726976 0.032723714 0.025711488 0.003116544 -0.004674816 -0.024932353 -0.010907904 -0.001558272
0.015582721 -0.03506112 0.031944577 -0.001558272 -0.010907904 -0.01168704 -0.059993476 -0.020257536
-0.008570496 -0.066226564 -0.025711488 -0.038177665 -0.04908557 -0.05687693 -0.04908557 0.0584352
-0.04285248 0.003116544 0.02960717 0.012466176 -0.03350285 -0.017140992 0.043631617 0.021815808
-0.020257536 0.02960717 -0.02726976 0.020257536 0.030386304 0.001558272 0.030386304 -0.010907904
0.0 0.026490625 0.044410754 -0.036619395 -0.02337408 0.014803585 0.032723714 0.02337408
0.010907904 -0.019478401 -0.004674816 -0.052202113 -0.014803585 0.019478401 0.014024449 -0.07090138
-0.0132453125 -0.01168704 0.050643843 -0.038177665 0.019478401 0.018699264 -0.04518989 0.0475273
0.006233088 0.021815808 0.04908557 -0.050643843 -0.031165441 -0.050643843 0.0475273 -0.05298125
-0.020257536 0.04285248 -0.024153218 -0.022594946 0.022594946 -0.04908557 0.03350285 0.0077913604
-0.034281984 -0.06311002 -0.018699264 0.07323879 -0.030386304 -0.02960717 0.028828032 0.05921434
-0.03350285 0.022594946 0.039735936 0.040515073 0.002337408 -0.022594946 0.03506112 0.04129421
0.014024449 0.025711488 0.014803585 -0.0070122243 0.002337408 0.015582721 -0.03739853 0.0475273
0.001558272 0.021036673 0.02726976 0.05453952 0.04908557 0.014803585 -0.028828032 -0.03739853
-0.025711488 0.003116544 -0.04285248 -0.04674816 -0.05921434 -0.031165441 -0.053760387 0.038177665
0.069343105 0.03739853 -0.081030145 0.024932353 0.03506112 -0.04285248 0.026490625 0.034281984
0.02960717 0.014803585 0.038177665 -0.028828032 -0.019478401 -0.05453952 -0.028828032 -0.0038956802
-0.0070122243 0.001558272 -0.019478401 0.003116544 -0.05298125 0.04285248 -0.07090138 -0.008570496
-0.02960717 0.03739853 -0.052202113 0.048306435 0.034281984 -0.050643843 -0.05687693 -0.018699264
0.05453952 -0.057656065 0.038956802 0.014024449 0.01168704 0.06778483 -0.003116544 0.019478401
0.04674816 -0.031944577 0.021815808 0.017920129 0.019478401 -0.024153218 -0.003116544 -0.038956802
0.036619395 0.004674816 -0.044410754 -0.03350285 0.021815808 -0.040515073 -0.051422976 -0.055318657
0.010128768 -0.0077913604 -0.021036673 -0.025711488 -0.000779136 0.03350285 -0.042073347 0.02726976
-0.043631617 -0.042073347 -0.044410754 0.0 -0.05921434 -0.04129421 -0.071680516 0.031165441
0.017140992 -0.014024449 0.014803585 0.036619395 0.025711488 -0.044410754 0.036619395 -0.062330883

sequential/dense_1/Tensordot/MatMul i1 [64, 128] scale=0.0016607946 zero_point=0
00000000: 4a21 67ec c822 3ec4 19fe a842 13f1 e6ad
00000010: 352e 09c7 cbf3 00cb d703 5056 1bc6 c410
00000020: 22ef e739 e1fc f728 35e3 430a 96be 68b7
00000030: 8f12 9ad3 c8aa 31a3 434e c306 f623 54a1
00000040: 434e 6ae9 5975 5bd3 eef2 0b3d 38ad d03e
00000050: 21d4 f064 c71b 39e8 59d0 4cfd 17c6 f627
00000060: b200 04a1 bbfa fbba a238 62f5 47ae ad22
00000070: f630 bd4e d9f0 ba02 e2e3 36df b5f0 10d7
00000080: 274a c30d 13d2 e7ef ca49 f7f0 bde1 55f3
00000090: b74f c1dc 3c9c 5afc 02d5 cf1f e957 b032
000000a0: a7d2 393b 280e d5fd e7ac 5a23 d7bf db07
000000b0: 33d2 d2dc b34b 6bba 5cf0 3336 46b4 6992
000000c0: e365 3825 e261 f6a4 bd2d f602 ba4f 553e
000000d0: 3b46 aac5 a11f d95d 55a7 c1ad 249f eef7
000000e0: e8fc b29e f5f2 02f7 be3d 4f58 5255 bba9
000000f0: b72c a8ef bdb5 d192 e207 59be d52e f54c
0.1228988 0.05480622 0.17106184 -0.03321589 -0.093004495 0.056467015 0.10296927 -0.09964768
0.041519865 -0.0033215892 -0.14614992 0.10961244 0.031555098 -0.02491192 -0.04318066 -0.13784595
0.08802211 0.076396555 0.014947152 -0.09466529 -0.08802211 -0.02159033 0.0 -0.08802211
-0.06809258 0.004982384 0.13286357 0.14282833 0.044841453 -0.09632609 -0.09964768 0.026572714
0.056467015 -0.028233508 -0.041519865 0.09466529 -0.051484633 -0.0066431784 -0.014947152 0.06643178
0.08802211 -0.048163045 0.11127324 0.016607946 -0.17604423 -0.10961244 0.17272264 -0.12123801
-0.18766978 0.029894304 -0.16940105 -0.07473576 -0.093004495 -0.14282833 0.08137894 -0.1544539
0.11127324 0.12954198 -0.10130847 0.009964768 -0.016607946 0.05812781 0.13950674 -0.15777549
0.11127324 0.12954198 0.17604423 -0.038198277 0.14781071 0.19431297 0.15113232 -0.07473576
-0.029894304 -0.023251124 0.01826874 0.10130847 0.093004495 -0.13784595 -0.07971814 0.10296927
0.05480622 -0.07307496 -0.026572714 0.16607946 -0.09466529 0.044841453 0.09466529 -0.03985907
0.14781071 -0.07971814 0.12622039 -0.004982384 0.038198277 -0.09632609 -0.016607946 0.06477099
-0.12954198 0.0 0.0066431784 -0.15777549 -0.114594825 -0.009964768 -0.008303973 -0.11625562
-0.1561147 0.093004495 0.16275787 -0.01826874 0.11791642 -0.13618515 -0.13784595 0.056467015
-0.016607946 0.07971814 -0.11127324 0.12954198 -0.06477099 -0.026572714 -0.11625562 0.0033215892
-0.04982384 -0.048163045 0.08968291 -0.05480622 -0.124559596 -0.026572714 0.026572714 -0.06809258
0.06477099 0.1228988 -0.10130847 0.02159033 0.031555098 -0.076396555 -0.041519865 -0.028233508
-0.08968291 0.12123801 -0.014947152 -0.026572714 -0.11127324 -0.051484633 0.14116754 -0.02159033
-0.12123801 0.13120277 -0.10463006 -0.059788607 0.09964768 -0.16607946 0.14947152 -0.0066431784
0.0033215892 -0.071414165 -0.08137894 0.051484633 -0.038198277 0.14448912 -0.13286357 0.08303973
-0.14781071 -0.076396555 0.09466529 0.097986884 0.06643178 0.023251124 -0.071414165 -0.004982384
-0.041519865 -0.13950674 0.14947152 0.05812781 -0.06809258 -0.10795165 -0.0614494 0.011625562
0.084700525 -0.076396555 -0.076396555 -0.059788607 -0.12788118 0.124559596 0.17770502 -0.11625562
0.15279311 -0.026572714 0.084700525 0.08968291 0.11625562 -0.12622039 0.17438343 -0.1826874
-0.048163045 0.16774026 0.093004495 0.0614494 -0.04982384 0.16109708 -0.016607946 -0.15279311
-0.11127324 0.07473576 -0.016607946 0.0033215892 -0.11625562 0.13120277 0.14116754 0.10296927
0.097986884 0.11625562 -0.14282833 -0.097986884 -0.15777549 0.051484633 -0.06477099 0.1544539
0.14116754 -0.14781071 -0.10463006 -0.13784595 0.059788607 -0.16109708 -0.029894304 -0.014947152
-0.03985907 -0.0066431784 -0.12954198 -0.16275787 -0.01826874 -0.023251124 0.0033215892 -0.014947152
-0.10961244 0.10130847 0.13120277 0.14614992 0.13618515 0.14116754 -0.114594825 -0.14448912
-0.12123801 0.07307496 -0.14614992 -0.028233508 -0.11127324 -0.124559596 -0.07805735 -0.1826874
-0.04982384 0.011625562 0.14781071 -0.10961244 -0.071414165 0.076396555 -0.01826874 0.12622039

sequential/dense/Tensordot/MatMul i1 [128, 1280] scale=0.0009650766 zero_point=0
00000000: e235 2f05 ded4 bd3d 27ca 2e08 e4b8 06b8
00000010: e821 18b2 1fda 27f4 e9ed ebe1 01f9 e908
00000020: 0636 e30f efe2 1b28 261d cee9 c5d9 41e5
00000030: 13e7 bbc2 fede e60d c2c2 0e1b 0ae4 dcb0
00000040: e1f2 4e04 01f1 c3d9 002e 0940 d603 24e8
00000050: 37e7 f8dd eef7 c3da 14df dcc1 ec38 f709
00000060: 0cc9 fc28 f62f bde2 1dd1 07ea fe1e 27fe
00000070: d100 ffc1 eee2 2e2a f4d0 30de 2b2f c0c6
00000080: 2305 ef28 2126 1f02 dc1f 041b 00bb eddb
00000090: f500 e104 2add 2903 0952 4303 c827 f41c
000000a0: b9f5 044f e8f5 3b3b f938 c8f7 cc41 da0a
000000b0: f8f8 400c bde7 17fd 05e6 2d31 e3cb e328
000000c0: b615 dd33 1c0e c6c1 34c0 3ce0 ceb8 df46
000000d0: 26db c33c dff3 18d1 ef2e e444 531e 3418
000000e0: 199f 2f0d f2bf cdfa f51b e817 22eb e903
000000f0: fb07 d92b d7be 0127 f7c1 eedc 1ff4 d15b
-0.028952299 0.05114906 0.045358602 0.004825383 -0.032812607 -0.04246337 -0.06466013 0.058869675
0.037637986 -0.052114137 0.044393525 0.007720613 -0.027022146 -0.069485515 0.00579046 -0.069485515
-0.02316184 0.03184753 0.02316184 -0.07527597 0.029917374 -0.036672913 0.037637986 -0.01158092
-0.022196762 -0.018336456 -0.02026661 -0.029917374 0.0009650766 -0.0067555364 -0.022196762 0.007720613
0.00579046 0.052114137 -0.027987221 0.014476149 -0.016406303 -0.028952299 0.026057068 0.038603064
0.036672913 0.027987221 -0.04825383 -0.022196762 -0.05693952 -0.037637986 0.06272998 -0.026057068
0.018336456 -0.024126915 -0.06659029 -0.05983475 -0.0019301532 -0.032812607 -0.025091993 0.012545996
-0.05983475 -0.05983475 0.013511073 0.026057068 0.009650766 -0.027022146 -0.034742758 -0.07720613
-0.029917374 -0.013511073 0.07527597 0.0038603065 0.0009650766 -0.014476149 -0.058869675 -0.037637986
0.0 0.044393525 0.008685689 0.061764903 -0.04053322 0.00289523 0.034742758 -0.02316184
0.053079214 -0.024126915 -0.007720613 -0.03377768 -0.017371379 -0.008685689 -0.058869675 -0.036672913
0.019301532 -0.03184753 -0.034742758 -0.060799826 -0.019301532 0.05404429 -0.008685689 0.008685689
0.01158092 -0.053079214 -0.0038603065 0.038603064 -0.009650766 0.045358602 -0.06466013 -0.028952299
0.027987221 -0.045358602 0.0067555364 -0.021231685 -0.0019301532 0.028952299 0.037637986 -0.0019301532
-0.045358602 0.0 -0.0009650766 -0.060799826 -0.017371379 -0.028952299 0.044393525 0.04053322
-0.01158092 -0.04632368 0.04632368 -0.032812607 0.041498296 0.045358602 -0.061764903 -0.055974443
0.03377768 0.004825383 -0.016406303 0.038603064 0.03184753 0.036672913 0.029917374 0.0019301532
-0.034742758 0.029917374 0.0038603065 0.026057068 0.0 -0.06659029 -0.018336456 -0.035707835
-0.010615842 0.0 -0.029917374 0.0038603065 0.04053322 -0.03377768 0.03956814 0.00289523
0.008685689 0.07913628 0.06466013 0.00289523 -0.05404429 0.037637986 -0.01158092 0.027022146
-0.06852044 -0.010615842 0.0038603065 0.07624105 -0.02316184 -0.010615842 0.05693952 0.05693952
-0.0067555364 0.05404429 -0.05404429 -0.008685689 -0.050183985 0.06272998 -0.036672913 0.009650766
-0.007720613 -0.007720613 0.061764903 0.01158092 -0.06466013 -0.024126915 0.022196762 -0.00289523
0.004825383 -0.025091993 0.043428447 0.047288753 -0.027987221 -0.05114906 -0.027987221 0.038603064
-0.07141567 0.02026661 -0.03377768 0.049218908 0.027022146 0.013511073 -0.055974443 -0.060799826
0.050183985 -0.061764903 0.057904597 -0.030882452 -0.04825383 -0.069485515 -0.03184753 0.06755536
0.036672913 -0.035707835 -0.058869675 0.057904597 -0.03184753 -0.012545996 0.02316184 -0.045358602
-0.016406303 0.044393525 -0.027022146 0.06562521 0.080101356 0.028952299 0.050183985 0.02316184
0.024126915 -0.09361243 0.045358602 0.012545996 -0.013511073 -0.06272998 -0.049218908 -0.00579046
-0.010615842 0.026057068 -0.02316184 0.022196762 0.032812607 -0.02026661 -0.022196762 0.00289523
-0.004825383 0.0067555364 -0.037637986 0.041498296 -0.03956814 -0.06369506 0.0009650766 0.037637986
-0.008685689 -0.060799826 -0.017371379 -0.034742758 0.029917374 -0.01158092 -0.045358602 0.087821975

sequential/model/Conv_1/Conv2D i1 [1280, 1, 1, 112]
00000000: e6d1 100a af0e c805 e8af 43ed e4ed bb77
00000010: 1b16 ed4e 3bde 79f7 e72b 7bc7 1132 ebdb
00000020: caf9 122d 3432 37c4 e158 eaf9 1dd1 b998
00000030: 11bd bb0e 2e3b 41e3 00c6 c729 3108 1e0e
00000040: d826 b510 c4ef eeea 7ae5 2370 bcbc d4ea
00000050: 133c 8163 baa3 2211 d46d ddf6 fe2a d3f3
00000060: e42c 079c 0c30 f706 2dfc 3742 58a3 ee10
00000070: 0117 f0f7 4fdd fa38 f3e9 f6d8 29f7 e9f1
00000080: ec6d 2dff 2ace 210f 1824 46f0 d04d 35f5
00000090: 17dd 33f7 def2 e6ae 6414 ed62 e37f c4f9
000000a0: 1ff9 f639 4808 e510 d718 1946 eaa1 2d15
000000b0: 4d10 eeca 13f2 cdee a706 f812 0c1a 04c0
000000c0: d81f f933 ee0e 0323 0d03 2d08 48fc 3cd3
000000d0: 0514 0d11 0cc3 4a2a 2ac5 f210 d8fa b158
000000e0: 121a 1312 d90b 3c26 bb9f 2ffa 12df 1dac
000000f0: f4c2 c3c6 c736 0fb0 fee1 a52d ce2e 2c31
-26 -47 16 10 -81 14 -56 5
-24 -81 67 -19 -28 -19 -69 119
27 22 -19 78 59 -34 121 -9
-25 43 123 -57 17 50 -21 -37
-54 -7 18 45 52 50 55 -60
-31 88 -22 -7 29 -47 -71 -104
17 -67 -69 14 46 59 65 -29
0 -58 -57 41 49 8 30 14
-40 38 -75 16 -60 -17 -18 -22
122 -27 35 112 -68 -68 -44 -22
19 60 -127 99 -70 -93 34 17
-44 109 -35 -10 -2 42 -45 -13
-28 44 7 -100 12 48 -9 6
45 -4 55 66 88 -93 -18 16
1 23 -16 -9 79 -35 -6 56
-13 -23 -10 -40 41 -9 -23 -15
-20 109 45 -1 42 -50 33 15
24 36 70 -16 -48 77 53 -11
23 -35 51 -9 -34 -14 -26 -82
100 20 -19 98 -29 127 -60 -7
31 -7 -10 57 72 8 -27 16
-41 24 25 70 -22 -95 45 21
77 16 -18 -54 19 -14 -51 -18
-89 6 -8 18 12 26 4 -64
-40 31 -7 51 -18 14 3 35
13 3 45 8 72 -4 60 -45
5 20 13 17 12 -61 74 42
42 -59 -14 16 -40 -6 -79 88
18 26 19 18 -39 11 60 38
-69 -97 47 -6 18 -33 29 -84
-12 -62 -61 -58 -57 54 15 -80
-2 -31 -91 45 -50 46 44 49

sequential/model/block_16_project/Conv2D i1 [112, 1, 1, 336]
00000000: 1de2 7213 3605 03cf 573b e8fb a3dd f12b
00000010: ea04 e8f7 2cba fa38 e4b5 4ce7 3b05 2ff0
00000020: 0887 1df9 55ed fde1 ff17 0b3f 1eec 227f
00000030: 1f18 0efd 051d df03 f11e a210 320f 13d3
00000040: f9a7 47e5 b80f d9f6 38e9 0207 dd06 081b
00000050: fa63 102e 20d8 d22d 09f1 33e7 13fd da0e
00000060: deb1 ea76 101a c8db f723 d4dc 57c3 dff0
00000070: e8d4 b64b 364e 9be5 e7cb f6f1 3b0f 5509
00000080: d4fc 1bef dc09 0903 b91d 0318 12ff dc25
00000090: cc11 f344 e9e2 dfd5 11b3 190f c5e1 3cef
000000a0: 1e63 0a01 01c6 2902 0834 67ec e8e3 e211
000000b0: 7e39 faf2 cecc edf8 3bfb d453 0fe9 1314
000000c0: b4cb 32e0 301d 33df 0f54 55b5 2b13 dee4
000000d0: 08e3 c9f7 2f35 b41f ebf7 0a67 f1fa effc
000000e0: 1903 f8f6 f00e e540 19db 4c5a 3a2c 1c0c
000000f0: c8e4 5711 2af1 f7b5 1229 070f 0956 fa0b
29 -30 114 19 54 5 3 -49
87 59 -24 -5 -93 -35 -15 43
-22 4 -24 -9 44 -70 -6 56
-28 -75 76 -25 59 5 47 -16
8 -121 29 -7 85 -19 -3 -31
-1 23 11 63 30 -20 34 127
31 24 14 -3 5 29 -33 3
-15 30 -94 16 50 15 19 -45
-7 -89 71 -27 -72 15 -39 -10
56 -23 2 7 -35 6 8 27
-6 99 16 46 32 -40 -46 45
9 -15 51 -25 19 -3 -38 14
-34 -79 -22 118 16 26 -56 -37
-9 35 -44 -36 87 -61 -33 -16
-24 -44 -74 75 54 78 -101 -27
-25 -53 -10 -15 59 15 85 9
-44 -4 27 -17 -36 9 9 3
-71 29 3 24 18 -1 -36 37
-52 17 -13 68 -23 -30 -33 -43
17 -77 25 15 -59 -31 60 -17
30 99 10 1 1 -58 41 2
8 52 103 -20 -24 -29 -30 17
126 57 -6 -14 -50 -52 -19 -8
59 -5 -44 83 15 -23 19 20
-76 -53 50 -32 48 29 51 -33
15 84 85 -75 43 19 -34 -28
8 -29 -55 -9 47 53 -76 31
-21 -9 10 103 -15 -6 -17 -4
25 3 -8 -10 -16 14 -27 64
25 -37 76 90 58 44 28 12
-56 -28 87 17 42 -15 -9 -75
18 41 7 15 9 86 -6 11

sequential/model/block_16_depthwise_BN/FusedBatchNormV3;sequential/model/block_16_depthwise/depthwise i1 [1, 3, 3, 336]
00000000: 7968 1e56 b586 4d6a 54e1 3f66 5da6 7369
00000010: 71e5 3290 6268 3d9c 786e 555e 7690 9e6e
00000020: 7f68 4773 98ae 6167 7f95 906e 7d6e 4a67
00000030: 7f6f 6879 8647 6e8f 8171 547a 7d74 573f
00000040: 7f64 9564 6f8b 9173 795b 4067 7eaa 7a72
00000050: 7db9 c689 6f45 6376 7bb2 6f44 5ac1 4079
00000060: 877b 9374 4f74 6698 675b 8935 5981 587f
00000070: 8563 74bb 6775 5690 6478 a081 65ed 904a
00000080: 5971 7d78 4771 518a 7931 5d76 7673 a278
00000090: 5e73 606a 6974 93be 6354 6b44 7576 906e
000000a0: 8177 7781 816a 7f69 6fa1 6878 9b6f 5ca1
000000b0: 65c1 6779 8d73 5c66 4192 5983 676b 799b
000000c0: 7963 9260 6e5f 6771 4d7f 57ac 467f 7971
000000d0: 6b67 7147 5878 75b3 6b7c 817d 7998 6d71
000000e0: 798e 5f42 8584 b46e 3072 986b 684d 6e88
000000f0: 4fae 7f6d 9381 9e78 636f 5b8b 6768 8eae
121 104 30 86 -75 -122 77 106
84 -31 63 102 93 -90 115 105
113 -27 50 -112 98 104 61 -100
120 110 85 94 118 -112 -98 110
127 104 71 115 -104 -82 97 103
127 -107 -112 110 125 110 74 103
127 111 104 121 -122 71 110 -113
-127 113 84 122 125 116 87 63
127 100 -107 100 111 -117 -111 115
121 91 64 103 126 -86 122 114
125 -71 -58 -119 111 69 99 118
123 -78 111 68 90 -63 64 121
-121 123 -109 116 79 116 102 -104
103 91 -119 53 89 -127 88 127
-123 99 116 -69 103 117 86 -112
100 120 -96 -127 101 -19 -112 74
89 113 125 120 71 113 81 -118
121 49 93 118 118 115 -94 120
94 115 96 106 105 116 -109 -66
99 84 107 68 117 118 -112 110
-127 119 119 -127 -127 106 127 105
111 -95 104 120 -101 111 92 -95
101 -63 103 121 -115 115 92 102
65 -110 89 -125 103 107 121 -101
121 99 -110 96 110 95 103 113
77 127 87 -84 70 127 121 113
107 103 113 71 88 120 117 -77
107 124 -127 125 121 -104 109 113
121 -114 95 66 -123 -124 -76 110
48 114 -104 107 104 77 110 -120
79 -82 127 109 -109 -127 -98 120
99 111 91 -117 103 104 -114 -82

sequential/model/block_16_expand/Conv2D i1 [336, 1, 1, 56]
00000000: 08cf fbfa 7fe0 1594 0204 01e6 da17 2eef
00000010: 0bfe 3fdd b300 4ad4 0ad7 ccf1 0630 d015
00000020: dd4a 1fdb 28d1 1045 3e41 2826 6f02 0540
00000030: 34bb 1b07 46b9 a5bb eaf5 d8ca e611 2952
00000040: 550f 4825 d5c7 e2ed 2307 1be0 efdf 22d2
00000050: d5e2 2e01 fdea 36e4 ef7f d625 1fe6 f21c
00000060: ca3f ed00 1eae 0514 0a5a cfd1 03eb 5c70
00000070: c8d8 b3fd fafd c0a5 adf7 0213 eb44 81fb
00000080: 1e18 1df9 f91d a3ac 2426 13a8 f5cf fe43
00000090: dce9 c0cb f10f 27e6 1ad8 6d14 026c 44c2
000000a0: a710 eac9 44f8 0627 4ece 0af8 91b9 81c7
000000b0: f221 109e ed0b f31f d3e0 f1e0 2903 2fed
000000c0: dd36 1ed2 a5e3 fe54 c646 4328 d19e de26
000000d0: e417 2542 cef7 cc0c c81e b221 02e9 e8c4
000000e0: aa19 1252 4713 81f0 14e9 5cce f832 fd0b
000000f0: 081b f4f6 db08 dddc 30fd 4fc2 3d07 e0f0
8 -49 -5 -6 127 -32 21 -108
2 4 1 -26 -38 23 46 -17
11 -2 63 -35 -77 0 74 -44
10 -41 -52 -15 6 48 -48 21
-35 74 31 -37 40 -47 16 69
62 65 40 38 111 2 5 64
52 -69 27 7 70 -71 -91 -69
-22 -11 -40 -54 -26 17 41 82
85 15 72 37 -43 -57 -30 -19
35 7 27 -32 -17 -33 34 -46
-43 -30 46 1 -3 -22 54 -28
-17 127 -42 37 31 -26 -14 28
-54 63 -19 0 30 -82 5 20
10 90 -49 -47 3 -21 92 112
-56 -40 -77 -3 -6 -3 -64 -91
-83 -9 2 19 -21 68 -127 -5
30 24 29 -7 -7 29 -93 -84
36 38 19 -88 -11 -49 -2 67
-36 -23 -64 -53 -15 15 39 -26
26 -40 109 20 2 108 68 -62
-89 16 -22 -55 68 -8 6 39
78 -50 10 -8 -111 -71 -127 -57
-14 33 16 -98 -19 11 -13 31
-45 -32 -15 -32 41 3 47 -19
-35 54 30 -46 -91 -29 -2 84
-58 70 67 40 -47 -98 -34 38
-28 23 37 66 -50 -9 -52 12
-56 30 -78 33 2 -23 -24 -60
-86 25 18 82 71 19 -127 -16
20 -23 92 -50 -8 50 -3 11
8 27 -12 -10 -37 8 -35 -36
48 -3 79 -62 61 7 -32 -16

sequential/model/block_15_project/Conv2D i1 [56, 1, 1, 336]
00000000: 0b1e f1f4 f3de 5308 bee8 c5ec dcd7 090a
00000010: 3bc2 f5ee 101d de2b c0f5 06d6 e81a 1acf
00000020: f0c1 fb23 60fa 0f81 e51a ee56 2cbf 2f87
00000030: d507 0154 eeeb 4e0a 23ed 0010 2a19 e501
00000040: cf64 e7be 39c3 2b0f 170e cb0c 28de d00f
00000050: 01e0 19f5 edee e6e4 fff3 03ef e2f0 17f4
00000060: db10 032e 2c3e 2314 f2c9 fd37 2a02 f1de
00000070: e6f8 f2c9 f4fe 0821 f9be 1218 e20c 07f7
00000080: fbbc 4cd3 fce8 b30f f7ef ed0d 2e1d 02de
00000090: bf01 ab18 0f25 250f 2102 04fb 24fb 17bd
000000a0: ebf0 0e1a 0cfd 17e6 2ec5 eaaf 36c1 0935
000000b0: d843 3c10 0236 c452 cedc f621 01eb 3a52
000000c0: 3abe cff9 f2c2 0d04 2201 3fda e20b fe1c
000000d0: 18d5 f1ea f91a 0bdd 0f06 f426 e427 0a06
000000e0: 19f4 3011 e70b 0d25 c1e8 dfd5 3302 03ae
000000f0: b7b5 f0e4 1701 18ef 0109 5ce2 f82e b2d2
11 30 -15 -12 -13 -34 83 8
-66 -24 -59 -20 -36 -41 9 10
59 -62 -11 -18 16 29 -34 43
-64 -11 6 -42 -24 26 26 -49
-16 -63 -5 35 96 -6 15 -127
-27 26 -18 86 44 -65 47 -121
-43 7 1 84 -18 -21 78 10
35 -19 0 16 42 25 -27 1
-49 100 -25 -66 57 -61 43 15
23 14 -53 12 40 -34 -48 15
1 -32 25 -11 -19 -18 -26 -28
-1 -13 3 -17 -30 -16 23 -12
-37 16 3 46 44 62 35 20
-14 -55 -3 55 42 2 -15 -34
-26 -8 -14 -55 -12 -2 8 33
-7 -66 18 24 -30 12 7 -9
-5 -68 76 -45 -4 -24 -77 15
-9 -17 -19 13 46 29 2 -34
-65 1 -85 24 15 37 37 15
33 2 4 -5 36 -5 23 -67
-21 -16 14 26 12 -3 23 -26
46 -59 -22 -81 54 -63 9 53
-40 67 60 16 2 54 -60 82
-50 -36 -10 33 1 -21 58 82
58 -66 -49 -7 -14 -62 13 4
34 1 63 -38 -30 11 -2 28
24 -43 -15 -22 -7 26 11 -35
15 6 -12 38 -28 39 10 6
25 -12 48 17 -25 11 13 37
-63 -24 -33 -43 51 2 3 -82
-73 -75 -16 -28 23 1 24 -17
1 9 92 -30 -8 46 -78 -46

sequential/model/block_15_depthwise_BN/FusedBatchNormV3;sequential/model/block_15_depthwise/depthwise;sequential/model/block_16_depthwise/depthwise i1 [1, 3, 3, 336]
00000000: 7b56 09ec fd21 dd14 07d8 43ee 24ec e008
00000010: d306 bfc2 120f de16 240c 1401 d801 e2fb
00000020: 5a25 1fd1 19e4 e945 1208 b329 7908 d40c
00000030: 2a3c e304 3f7f 0128 167f edea e39c 142f
00000040: e925 ed0b daec e198 1e2c fff7 b7c1 a4e1
00000050: 0cc5 868e 4129 0baa c17f f31e 5ff4 ccda
00000060: f9f4 c7fb 21f2 28e2 acff 25da 2718 ea26
00000070: 2801 f4d7 56eb f625 012a e62f 3205 b02f
00000080: 5b4b 32ef 0f15 fa06 eb17 39e0 44f9 dbeb
00000090: c2fb ffff fb03 00db 0df0 41f7 def5 1426
000000a0: d0ea 22f1 ed12 530d e328 e122 e720 f681
000000b0: 0ad8 03f5 d807 27f5 5904 f5da ff03 7ff2
000000c0: 770a 0a23 fa19 1281 dfe3 267f f267 1ea0
000000d0: f005 42e9 18ee 024f cf04 5ffb 3dcd e60d
000000e0: bee8 d20c 5924 0e7f f807 3006 1418 37ff
000000f0: cea8 650d 3a16 8ff5 0381 f726 c51c 9a7e
123 86 9 -20 -3 33 -35 20
7 -40 67 -18 36 -20 -32 8
-45 6 -65 -62 18 15 -34 22
36 12 20 1 -40 1 -30 -5
90 37 31 -47 25 -28 -23 69
18 8 -77 41 121 8 -44 12
42 60 -29 4 63 127 1 40
22 127 -19 -22 -29 -100 20 47
-23 37 -19 11 -38 -20 -31 -104
30 44 -1 -9 -73 -63 -92 -31
12 -59 -122 -114 65 41 11 -86
-63 127 -13 30 95 -12 -52 -38
-7 -12 -57 -5 33 -14 40 -30
-84 -1 37 -38 39 24 -22 38
40 1 -12 -41 86 -21 -10 37
1 42 -26 47 50 5 -80 47
91 75 50 -17 15 21 -6 6
-21 23 57 -32 68 -7 -37 -21
-62 -5 -1 -1 -5 3 0 -37
13 -16 65 -9 -34 -11 20 38
-48 -22 34 -15 -19 18 83 13
-29 40 -31 34 -25 32 -10 -127
10 -40 3 -11 -40 7 39 -11
89 4 -11 -38 -1 3 127 -14
119 10 10 35 -6 25 18 -127
-33 -29 38 127 -14 103 30 -96
-16 5 66 -23 24 -18 2 79
-49 4 95 -5 61 -51 -26 13
-66 -24 -46 12 89 36 14 127
-8 7 48 6 20 24 55 -1
-50 -88 101 13 58 22 -113 -11
3 -127 -9 38 -59 28 -102 126

sequential/model/block_15_expand/Conv2D i1 [336, 1, 1, 56]
00000000: e6b6 2504 faeb 6010 fe32 fdfc 0a17 7fd8
00000010: 1430 dea2 122c 2154 46e4 d440 eff4 031e
00000020: f2f9 66de 1508 243e 1cb4 10ef 1aef e9dd
00000030: 2ccc e422 fe25 26f5 08ff 67e0 2a2d 1d15
00000040: 3634 2313 cced 514f e0f0 f509 4208 ff7f
00000050: 5223 23d0 e042 eb0f c214 20ee e908 18ee
00000060: e9ec 5eec 09eb 3522 fe13 1c6b e0e9 aab6
00000070: bbf5 dac6 cb4e 2afb e217 d109 e0de 42de
00000080: eaeb d5de 02d2 0407 1ff6 f316 eb15 c5de
00000090: 0cf5 7f16 fdf3 0cf0 4cd2 f0f6 30ef ffeb
000000a0: fcf0 213b 1909 11f1 e621 e5e9 1234 d7d7
000000b0: 03c6 7fdc bfbb ac2b 30c4 0a0b e1f3 1011
000000c0: f257 2da2 e83d 1cf0 cd41 171a ecd3 eee1
000000d0: edd3 f202 fe38 fc1b e8ff 1add b74b 223d
000000e0: cd0a d013 cf05 fcfb 321e 3d33 29f3 0e3c
000000f0: 080a 169b f6e7 ba02 d7c1 f0c9 efe9 f3df
-26 -74 37 4 -6 -21 96 16
-2 50 -3 -4 10 23 127 -40
20 48 -34 -94 18 44 33 84
70 -28 -44 64 -17 -12 3 30
-14 -7 102 -34 21 8 36 62
28 -76 16 -17 26 -17 -23 -35
44 -52 -28 34 -2 37 38 -11
8 -1 103 -32 42 45 29 21
54 52 35 19 -52 -19 81 79
-32 -16 -11 9 66 8 -1 127
82 35 35 -48 -32 66 -21 15
-62 20 32 -18 -23 8 24 -18
-23 -20 94 -20 9 -21 53 34
-2 19 28 107 -32 -23 -86 -74
-69 -11 -38 -58 -53 78 42 -5
-30 23 -47 9 -32 -34 66 -34
-22 -21 -43 -34 2 -46 4 7
31 -10 -13 22 -21 21 -59 -34
12 -11 127 22 -3 -13 12 -16
76 -46 -16 -10 48 -17 -1 -21
-4 -16 33 59 25 9 17 -15
-26 33 -27 -23 18 52 -41 -41
3 -58 127 -36 -65 -69 -84 43
48 -60 10 11 -31 -13 16 17
-14 87 45 -94 -24 61 28 -16
-51 65 23 26 -20 -45 -18 -31
-19 -45 -14 2 -2 56 -4 27
-24 -1 26 -35 -73 75 34 61
-51 10 -48 19 -49 5 -4 -5
50 30 61 51 41 -13 14 60
8 10 22 -101 -10 -25 -70 2
-41 -63 -16 -55 -17 -23 -13 -33

sequential/model/block_14_project/Conv2D i1 [56, 1, 1, 336]
00000000: 0719 fd07 09db e61b 14f3 0afd 01fb fcfc
00000010: 04e7 08f5 f00f db0f f616 eb03 f3cf 060d
00000020: dffe 1e05 1603 06fc faef f3f4 f3f4 050d
00000030: ed04 0613 d3f2 10d9 00ef fc1b 12d2 08e9
00000040: fb04 1004 23fd 0507 16df d9ec 0107 09eb
00000050: 0701 0020 ebf8 ea27 0a0c e8e9 efe4 f9ed
00000060: f903 0a00 f8e2 05ff 09fa 1930 c2df 1cfc
00000070: e7f5 e0f3 09eb 0c2e 15f8 1517 0a0b dbf5
00000080: 24fc 12d3 f825 e723 ffc2 fbfe 14f5 fcec
00000090: eb11 0d81 02fc 0ccc 0cfa 0113 fffe dcfa
000000a0: 0df8 2104 06f4 e723 ee27 17e1 cc25 00f4
000000b0: 23f7 f3dc ea19 1612 e700 391b 0504 f205
000000c0: de0e efef 00f8 09d8 ebf1 1214 17da 03fb
000000d0: fd13 ee0d 09e9 fa23 ea11 ffc4 00f3 051c
000000e0: 0ff7 06ef eeed fced e9f0 0b00 f8e4 efea
000000f0: de1e 0c11 0120 0c06 190c fcfe f1fb e8d8
7 25 -3 7 9 -37 -26 27
20 -13 10 -3 1 -5 -4 -4
4 -25 8 -11 -16 15 -37 15
-10 22 -21 3 -13 -49 6 13
-33 -2 30 5 22 3 6 -4
-6 -17 -13 -12 -13 -12 5 13
-19 4 6 19 -45 -14 16 -39
0 -17 -4 27 18 -46 8 -23
-5 4 16 4 35 -3 5 7
22 -33 -39 -20 1 7 9 -21
7 1 0 32 -21 -8 -22 39
10 12 -24 -23 -17 -28 -7 -19
-7 3 10 0 -8 -30 5 -1
9 -6 25 48 -62 -33 28 -4
-25 -11 -32 -13 9 -21 12 46
21 -8 21 23 10 11 -37 -11
36 -4 18 -45 -8 37 -25 35
-1 -62 -5 -2 20 -11 -4 -20
-21 17 13 -127 2 -4 12 -52
12 -6 1 19 -1 -2 -36 -6
13 -8 33 4 6 -12 -25 35
-18 39 23 -31 -52 37 0 -12
35 -9 -13 -36 -22 25 22 18
-25 0 57 27 5 4 -14 5
-34 14 -17 -17 0 -8 9 -40
-21 -15 18 20 23 -38 3 -5
-3 19 -18 13 9 -23 -6 35
-22 17 -1 -60 0 -13 5 28
15 -9 6 -17 -18 -19 -4 -19
-23 -16 11 0 -8 -28 -17 -22
-34 30 12 17 1 32 12 6
25 12 -4 -2 -15 -5 -24 -40

sequential/model/block_14_depthwise_BN/FusedBatchNormV3;sequential/model/block_14_depthwise/depthwise;sequential/model/block_16_depthwise/depthwise i1 [1, 3, 3, 336]
00000000: 0a24 0d29 1ff3 0bf2 dcf9 eb69 003b 0324
00000010: 0c15 2326 e95b 1520 2718 32fd d807 2582
00000020: 1920 002a f42d a988 a70a 03fc e16c e7fb
00000030: 2727 35e5 3407 0c28 0f17 0eeb 812b 38ca
00000040: 050a ddcc 1330 2346 eacf 2a4e 170b 6d1c
00000050: 0b1f 5bff 0deb 29ed 00e2 f108 8106 3e25
00000060: 017f 21b8 f281 1fef dbfb 9843 d9da 7f19
00000070: e73a 2421 2eec c2f2 fcbb dda4 fbd9 dcc7
00000080: 0424 edf0 0e1a c031 03f9 35dd 49d5 cbf5
00000090: 2c29 a506 dfd9 e910 e311 f0f5 e5d0 eb39
000000a0: 2d25 30f7 173b b4ee 202b 1bf2 a4ac 1e2c
000000b0: 8105 1215 e2a6 0e0c fcea 34ea ef12 bad3
000000c0: edea cd16 fdec 131a 512b 1008 f9f4 ecf5
000000d0: 13b3 0d0a 17fc e628 dfe5 1315 21f7 0b17
000000e0: 595b 24d0 bcf7 f8cd 81cc 811b f256 31db
000000f0: 3117 e3c2 51ea de03 eb1f 1c0f ec29 d1cb
10 36 13 41 31 -13 11 -14
-36 -7 -21 105 0 59 3 36
12 21 35 38 -23 91 21 32
39 24 50 -3 -40 7 37 -126
25 32 0 42 -12 45 -87 -120
-89 10 3 -4 -31 108 -25 -5
39 39 53 -27 52 7 12 40
15 23 14 -21 -127 43 56 -54
5 10 -35 -52 19 48 35 70
-22 -49 42 78 23 11 109 28
11 31 91 -1 13 -21 41 -19
0 -30 -15 8 -127 6 62 37
1 127 33 -72 -14 -127 31 -17
-37 -5 -104 67 -39 -38 127 25
-25 58 36 33 46 -20 -62 -14
-4 -69 -35 -92 -5 -39 -36 -57
4 36 -19 -16 14 26 -64 49
3 -7 53 -35 73 -43 -53 -11
44 41 -91 6 -33 -39 -23 16
-29 17 -16 -11 -27 -48 -21 57
45 37 48 -9 23 59 -76 -18
32 43 27 -14 -92 -84 30 44
-127 5 18 21 -30 -90 14 12
-4 -22 52 -22 -17 18 -70 -45
-19 -22 -51 22 -3 -20 19 26
81 43 16 8 -7 -12 -20 -11
19 -77 13 10 23 -4 -26 40
-33 -27 19 21 33 -9 11 23
89 91 36 -48 -68 -9 -8 -51
-127 -52 -127 27 -14 86 49 -37
49 23 -29 -62 81 -22 -34 3
-21 31 28 15 -20 41 -47 -53

sequential/model/block_14_expand/Conv2D i1 [336, 1, 1, 56]
00000000: 123a 20d2 0bd5 e2eb 2627 15f7 17d8 7de5
00000010: 19d7 0c39 a8ad 3b1e 16e2 0e1d bbec d058
00000020: eb89 3204 38f3 1d97 18dd d281 3721 d1ba
00000030: 2901 ac0d 0132 fc1a 1004 1014 3c13 050b
00000040: c220 1df9 a6fd 0220 a942 10bf d6d2 f6cb
00000050: 141b fa46 c1f8 3905 f197 000a dc03 28a0
00000060: f9a6 7fec e7f9 dcbe b6f9 2869 10bc 2de3
00000070: 14f3 894c fc26 eb0f 1b09 1d06 f938 92c7
00000080: 0706 f2bd 24cd e300 00dd ff00 3fe7 1bb5
00000090: 44d4 c3d5 011f f667 d929 1d68 04e8 7ffd
000000a0: f030 56ff ef04 11d1 e4bc d001 c1f2 d8ce
000000b0: e6ec 22c1 f9f1 4415 0df0 206d 051d 023f
000000c0: 32ca e043 ce0b c925 d2e6 3ff1 81fa e410
000000d0: 2dbb f5fc 2ad7 d0e0 0914 0925 2fbc 1317
000000e0: 34f2 d8df b014 c0fe 15f0 01f9 3f8d f20a
000000f0: cb27 b035 0eef c66d a7c5 d485 fdda 5223
18 58 32 -46 11 -43 -30 -21
38 39 21 -9 23 -40 125 -27
25 -41 12 57 -88 -83 59 30
22 -30 14 29 -69 -20 -48 88
-21 -119 50 4 56 -13 29 -105
24 -35 -46 -127 55 33 -47 -70
41 1 -84 13 1 50 -4 26
16 4 16 20 60 19 5 11
-62 32 29 -7 -90 -3 2 32
-87 66 16 -65 -42 -46 -10 -53
20 27 -6 70 -63 -8 57 5
-15 -105 0 10 -36 3 40 -96
-7 -90 127 -20 -25 -7 -36 -66
-74 -7 40 105 16 -68 45 -29
20 -13 -119 76 -4 38 -21 15
27 9 29 6 -7 56 -110 -57
7 6 -14 -67 36 -51 -29 0
0 -35 -1 0 63 -25 27 -75
68 -44 -61 -43 1 31 -10 103
-39 41 29 104 4 -24 127 -3
-16 48 86 -1 -17 4 17 -47
-28 -68 -48 1 -63 -14 -40 -50
-26 -20 34 -63 -7 -15 68 21
13 -16 32 109 5 29 2 63
50 -54 -32 67 -50 11 -55 37
-46 -26 63 -15 -127 -6 -28 16
45 -69 -11 -4 42 -41 -48 -32
9 20 9 37 47 -68 19 23
52 -14 -40 -33 -80 20 -64 -2
21 -16 1 -7 63 -115 -14 10
-53 39 -80 53 14 -17 -58 109
-89 -59 -44 -123 -3 -38 82 35

sequential/model/block_13_project/Conv2D i1 [56, 1, 1, 192]
00000000: 5ac9 00e8 b90d ff17 2def f252 131a 0452
00000010: 0b44 e1f9 3017 1b09 2de1 06e7 d219 46d8
00000020: ceff 0e25 eef2 db0e 203b f5fb ad20 132f
00000030: 34ec d803 04fb 5ec4 280b e1f3 7a23 1916
00000040: 2609 3fcd bae3 2505 eccb 00cc 18f0 ea35
00000050: 0176 e33f e119 0234 2844 401b e6dc bf00
00000060: 9b0f c3e7 25ae 540c 47eb 0317 f3b5 5b3e
00000070: f908 133b 2617 d303 fc0d 810b 0dd0 0438
00000080: 1f15 f22b ea10 bc63 ec0a edfa 1cf6 da1d
00000090: e759 36f7 ef1d d625 26f8 e415 32d2 b2cd
000000a0: d793 f12e fdc6 edfd 18d3 d913 2de0 cdf6
000000b0: e545 0bdf b6f6 db06 f59d 1030 1e5c ecd0
000000c0: b5cf 41be d1c7 fa01 facc 1a04 5d02 f10a
000000d0: a336 0a31 1601 adad f30e d9e7 4f1b a0f7
000000e0: 3413 08e0 ea42 026d 4204 0fe1 e639 faca
000000f0: 740d 413d 35e3 1f43 bbce 130c ed1b aae6
90 -55 0 -24 -71 13 -1 23
45 -17 -14 82 19 26 4 82
11 68 -31 -7 48 23 27 9
45 -31 6 -25 -46 25 70 -40
-50 -1 14 37 -18 -14 -37 14
32 59 -11 -5 -83 32 19 47
52 -20 -40 3 4 -5 94 -60
40 11 -31 -13 122 35 25 22
38 9 63 -51 -70 -29 37 5
-20 -53 0 -52 24 -16 -22 53
1 118 -29 63 -31 25 2 52
40 68 64 27 -26 -36 -65 0
-101 15 -61 -25 37 -82 84 12
71 -21 3 23 -13 -75 91 62
-7 8 19 59 38 23 -45 3
-4 13 -127 11 13 -48 4 56
31 21 -14 43 -22 16 -68 99
-20 10 -19 -6 28 -10 -38 29
-25 89 54 -9 -17 29 -42 37
38 -8 -28 21 50 -46 -78 -51
-41 -109 -15 46 -3 -58 -19 -3
24 -45 -39 19 45 -32 -51 -10
-27 69 11 -33 -74 -10 -37 6
-11 -99 16 48 30 92 -20 -48
-75 -49 65 -66 -47 -57 -6 1
-6 -52 26 4 93 2 -15 10
-93 54 10 49 22 1 -83 -83
-13 14 -39 -25 79 27 -96 -9
52 19 8 -32 -22 66 2 109
66 4 15 -31 -26 57 -6 -54
116 13 65 61 53 -29 31 67
-69 -50 19 12 -19 27 -86 -26

sequential/model/block_13_depthwise_BN/FusedBatchNormV3;sequential/model/block_13_depthwise/depthwise i1 [1, 3, 3, 192]
00000000: 444a 5157 4757 8fb6 a5ca 57c1 c941 b557
00000010: 4ba0 504f 4c7f 44ad 5574 53b8 56af 4c48
00000020: 394d 52b1 4cbd 464e c472 5e81 3f9a c7d0
00000030: c14a 4eb3 514b b1c0 b3b6 4b88 4056 bb46
00000040: 3b45 7fb1 ae4a 42b8 bf3f b047 567f bfb3
00000050: b7a5 46c6 4e3c b845 4553 333e 62ad 52b9
00000060: 37a3 a66e c054 5041 494f 4549 cc48 bcbf
00000070: b038 66c9 aca1 b839 563d 90c0 5941 40b8
00000080: c8a6 4d48 bf4c 3fba 70c2 3950 3c4d 5e44
00000090: 2f39 53c2 c1a9 60b3 443b be31 4f3f 484e
000000a0: 9dbb 5151 9667 5da4 c1c0 bb49 3f49 bfbc
000000b0: 5cc2 c2cd 0246 5748 43ce bbba 8d4f 5046
000000c0: 6161 6365 5d6f 2faf 90ba 66a5 af57 9c6b
000000d0: 5c90 6562 5f77 5d9a 607f 64aa 6799 605b
000000e0: 4c65 6e9d 5da4 5060 aa7f 7f2a 5381 b6c2
000000f0: ae60 62a0 6b61 9ba7 96a4 6a27 596a a15c
68 74 81 87 71 87 -113 -74
-91 -54 87 -63 -55 65 -75 87
75 -96 80 79 76 127 68 -83
85 116 83 -72 86 -81 76 72
57 77 82 -79 76 -67 70 78
-60 114 94 -127 63 -102 -57 -48
-63 74 78 -77 81 75 -79 -64
-77 -74 75 -120 64 86 -69 70
59 69 127 -79 -82 74 66 -72
-65 63 -80 71 86 127 -65 -77
-73 -91 70 -58 78 60 -72 69
69 83 51 62 98 -83 82 -71
55 -93 -90 110 -64 84 80 65
73 79 69 73 -52 72 -68 -65
-80 56 102 -55 -84 -95 -72 57
86 61 -112 -64 89 65 64 -72
-56 -90 77 72 -65 76 63 -70
112 -62 57 80 60 77 94 68
47 57 83 -62 -63 -87 96 -77
68 59 -66 49 79 63 72 78
-99 -69 81 81 -106 103 93 -92
-63 -64 -69 73 63 73 -65 -68
92 -62 -62 -51 2 70 87 72
67 -50 -69 -70 -115 79 80 70
97 97 99 101 93 111 47 -81
-112 -70 102 -91 -81 87 -100 107
92 -112 101 98 95 119 93 -102
96 127 100 -86 103 -103 96 91
76 101 110 -99 93 -92 80 96
-86 127 127 42 83 -127 -74 -62
-82 96 98 -96 107 97 -101 -89
-106 -92 106 39 89 106 -95 92

sequential/model/block_13_expand/Conv2D i1 [192, 1, 1, 32]
00000000: 0307 d900 0606 fbd5 e129 08f4 ed5a ec16
00000010: 00fc 0bef 15ed 0607 f2ff f6d3 0c05 7f01
00000020: 3039 1f83 f414 bcac f42e dfe9 9a0a ee09
00000030: f1a4 12c4 a6f4 e8cd 3c2a d40d 8152 3ff2
00000040: 3a01 1222 cc94 1adc 0723 11d5 a8c1 d33b
00000050: 41c6 0627 fbc1 f045 c87f 1060 16cb d2c0
00000060: 2d1c 08c5 ebd7 7ffe 0dea 4404 fe13 2f1d
00000070: f0d0 361b 140f b7b7 e7dc 58fe dacf 10cc
00000080: 3b1a e5e1 17b0 112c 873b d020 4ee8 39f2
00000090: 31e5 150e 0bc7 7fc6 1157 cc6b 5063 0d99
000000a0: 192d fec7 0c28 1709 14fe e324 f8f1 f918
000000b0: 0203 f56f ebff 34ac 270e f517 0c81 1ec5
000000c0: d854 06df 030e e803 0d25 f004 e20d f3b7
000000d0: ee47 083b 2163 ebce 07d8 02f8 d1ab fa81
000000e0: 7f8c 2b15 2034 69f8 50d7 0be2 34f5 3c10
000000f0: fede 0fca cd19 fc2d c454 e630 1418 2e59
3 7 -39 0 6 6 -5 -43
-31 41 8 -12 -19 90 -20 22
0 -4 11 -17 21 -19 6 7
-14 -1 -10 -45 12 5 127 1
48 57 31 -125 -12 20 -68 -84
-12 46 -33 -23 -102 10 -18 9
-15 -92 18 -60 -90 -12 -24 -51
60 42 -44 13 -127 82 63 -14
58 1 18 34 -52 -108 26 -36
7 35 17 -43 -88 -63 -45 59
65 -58 6 39 -5 -63 -16 69
-56 127 16 96 22 -53 -46 -64
45 28 8 -59 -21 -41 127 -2
13 -22 68 4 -2 19 47 29
-16 -48 54 27 20 15 -73 -73
-25 -36 88 -2 -38 -49 16 -52
59 26 -27 -31 23 -80 17 44
-121 59 -48 32 78 -24 57 -14
49 -27 21 14 11 -57 127 -58
17 87 -52 107 80 99 13 -103
25 45 -2 -57 12 40 23 9
20 -2 -29 36 -8 -15 -7 24
2 3 -11 111 -21 -1 52 -84
39 14 -11 23 12 -127 30 -59
-40 84 6 -33 3 14 -24 3
13 37 -16 4 -30 13 -13 -73
-18 71 8 59 33 99 -21 -50
7 -40 2 -8 -47 -85 -6 -127
127 -116 43 21 32 52 105 -8
80 -41 11 -30 52 -11 60 16
-2 -34 15 -54 -51 25 -4 45
-60 84 -26 48 20 24 46 89

sequential/model/block_12_project/Conv2D i1 [32, 1, 1, 192]
00000000: 7f20 3516 ae03 f81a f202 0906 140c 9fcf
00000010: fe14 2ffe 330b 1037 f81d 1a07 d1e4 e5cb
00000020: b615 5bf4 060b e2fb e505 0842 fad7 16d6
00000030: 26cb 0d03 0860 d818 1104 dadd ec11 bff6
00000040: c221 26d8 e437 e320 f319 f501 0a0d fcbf
00000050: c4cf 010a 1649 de02 3ff2 feff 0d0d ec37
00000060: 16fa 2c02 0324 f806 e705 b531 e315 1b01
00000070: 12fb 12f0 ec12 f109 ffd3 2847 f2d5 3f08
00000080: 074a 121e fe12 faf3 04c2 c42e bfde 1dfe
00000090: f606 2ce5 b5ec 24e9 2d1a cbf3 0745 08ce
000000a0: 09ba f2f0 03db fcf4 eab8 f968 c2dd e936
000000b0: 6d0d f1ff f0a9 1a3f d12f e828 f5fe eb00
000000c0: d8ff 4fd4 e4ed 15d6 1940 fd1c 000c f62f
000000d0: ee42 f8c8 cf35 fdf3 b418 19f1 f11e d90e
000000e0: 343e 011f de1b 0ffd 0c0f 32f0 fc11 0bee
000000f0: c236 f047 15e5 cbe0 3525 46da ef1b f0d6
127 32 53 22 -82 3 -8 26
-14 2 9 6 20 12 -97 -49
-2 20 47 -2 51 11 16 55
-8 29 26 7 -47 -28 -27 -53
-74 21 91 -12 6 11 -30 -5
-27 5 8 66 -6 -41 22 -42
38 -53 13 3 8 96 -40 24
17 4 -38 -35 -20 17 -65 -10
-62 33 38 -40 -28 55 -29 32
-13 25 -11 1 10 13 -4 -65
-60 -49 1 10 22 73 -34 2
63 -14 -2 -1 13 13 -20 55
22 -6 44 2 3 36 -8 6
-25 5 -75 49 -29 21 27 1
18 -5 18 -16 -20 18 -15 9
-1 -45 40 71 -14 -43 63 8
7 74 18 30 -2 18 -6 -13
4 -62 -60 46 -65 -34 29 -2
-10 6 44 -27 -75 -20 36 -23
45 26 -53 -13 7 69 8 -50
9 -70 -14 -16 3 -37 -4 -12
-22 -72 -7 104 -62 -35 -23 54
109 13 -15 -1 -16 -87 26 63
-47 47 -24 40 -11 -2 -21 0
-40 -1 79 -44 -28 -19 21 -42
25 64 -3 28 0 12 -10 47
-18 66 -8 -56 -49 53 -3 -13
-76 24 25 -15 -15 30 -39 14
52 62 1 31 -34 27 15 -3
12 15 50 -16 -4 17 11 -18
-62 54 -16 71 21 -27 -53 -32
53 37 70 -38 -17 27 -16 -42

sequential/model/block_12_depthwise_BN/FusedBatchNormV3;sequential/model/block_12_depthwise/depthwise;sequential/model/block_13_depthwise/depthwise i1 [1, 3, 3, 192]
00000000: 213c f4f5 319a 02dd 3b1a 23ef 012e 2dc4
00000010: aafa 0ffd 4d08 4e07 fde8 d717 9423 4305
00000020: 2e06 047f 647f b4f9 3124 84c5 2ceb 0401
00000030: a509 0121 104a 7f28 39ff 2e7a 0b1c 100f
00000040: 03f1 8177 ed1c 07d9 073a e47f f91e e5ea
00000050: f30b 32ff 065d 0f14 7c16 fe64 d5f9 c1d4
00000060: 20b9 0f0d 080f 5afd f3e3 e831 f709 0601
00000070: 95fb 2625 e3b5 1c09 62c8 a7e8 f4f1 0728
00000080: 03f5 dcb7 ec08 1316 d039 32ba ea11 15fd
00000090: d37f f7e9 4092 b4eb 1aae 0703 d881 f314
000000a0: 2c28 0523 e5fc d71d 1a42 af5c f0eb a81e
000000b0: 7f20 5b42 f915 ebf4 0501 fc1d 2013 0a0a
000000c0: 7fc4 c5bb d181 eeb3 7f7f eba7 d252 7fec
000000d0: 1efb 398f 7f19 5e1d 02ec d62a 0e25 fd66
000000e0: 477f f334 df0d c87f 7f55 d692 7f08 b839
000000f0: 8126 e21a 7f7f dfbf eff1 4481 25f8 2b7f
33 60 -12 -11 49 -102 2 -35
59 26 35 -17 1 46 45 -60
-86 -6 15 -3 77 8 78 7
-3 -24 -41 23 -108 35 67 5
46 6 4 127 100 127 -76 -7
49 36 -124 -59 44 -21 4 1
-91 9 1 33 16 74 127 40
57 -1 46 122 11 28 16 15
3 -15 -127 119 -19 28 7 -39
7 58 -28 127 -7 30 -27 -22
-13 11 50 -1 6 93 15 20
124 22 -2 100 -43 -7 -63 -44
32 -71 15 13 8 15 90 -3
-13 -29 -24 49 -9 9 6 1
-107 -5 38 37 -29 -75 28 9
98 -56 -89 -24 -12 -15 7 40
3 -11 -36 -73 -20 8 19 22
-48 57 50 -70 -22 17 21 -3
-45 127 -9 -23 64 -110 -76 -21
26 -82 7 3 -40 -127 -13 20
44 40 5 35 -27 -4 -41 29
26 66 -81 92 -16 -21 -88 30
127 32 91 66 -7 21 -21 -12
5 1 -4 29 32 19 10 10
127 -60 -59 -69 -47 -127 -18 -77
127 127 -21 -89 -46 82 127 -20
30 -5 57 -113 127 25 94 29
2 -20 -42 42 14 37 -3 102
71 127 -13 52 -33 13 -56 127
127 85 -42 -110 127 8 -72 57
-127 38 -30 26 127 127 -33 -65
-17 -15 68 -127 37 -8 43 127

sequential/model/block_12_expand/Conv2D i1 [192, 1, 1, 32]
00000000: 9935 09f6 1d28 031d 7fde 68aa efb3 0933
00000010: 4fb0 db3f 422a 760f 0e6c ee34 d850 7315
00000020: fdf2 da16 1505 0807 18c1 d2f0 d908 fa06
00000030: 7ff0 e9f5 c7fe 01f9 fd6a 02f9 2be2 26ef
00000040: e94d 0793 0911 dc32 eae9 01f9 9631 05e1
00000050: 1204 2e0e 2945 e3f8 6081 21cd c8e4 0411
00000060: 00da 81c0 d90c 0906 e3c9 9cdf 0bf1 27e9
00000070: 2428 1d0e 2761 04e6 b7f1 150e 04d5 c0d6
00000080: 81c0 e7a7 dc0c 1f49 4449 9f22 abdf bfc9
00000090: cee7 cf74 ef32 1d14 398d 66d7 a5f5 48ac
000000a0: 4a06 15ef e80a dbf3 e9ff ed3b d9f7 7f12
000000b0: 0d24 2272 07fc 20ab 150b f33e 09e5 dfb0
000000c0: f834 04f5 2ce0 ef07 f71c 05fc cffe faec
000000d0: 2906 1901 25dc d1f2 7f08 f3ff bf02 f10b
000000e0: f916 2b81 dd21 9d52 e403 376e 018f 3c5e
000000f0: 2e15 0fbf 2cbd fef8 ed3c c190 922d 593d
-103 53 9 -10 29 40 3 29
127 -34 104 -86 -17 -77 9 51
79 -80 -37 63 66 42 118 15
14 108 -18 52 -40 80 115 21
-3 -14 -38 22 21 5 8 7
24 -63 -46 -16 -39 8 -6 6
127 -16 -23 -11 -57 -2 1 -7
-3 106 2 -7 43 -30 38 -17
-23 77 7 -109 9 17 -36 50
-22 -23 1 -7 -106 49 5 -31
18 4 46 14 41 69 -29 -8
96 -127 33 -51 -56 -28 4 17
0 -38 -127 -64 -39 12 9 6
-29 -55 -100 -33 11 -15 39 -23
36 40 29 14 39 97 4 -26
-73 -15 21 14 4 -43 -64 -42
-127 -64 -25 -89 -36 12 31 73
68 73 -97 34 -85 -33 -65 -55
-50 -25 -49 116 -17 50 29 20
57 -115 102 -41 -91 -11 72 -84
74 6 21 -17 -24 10 -37 -13
-23 -1 -19 59 -39 -9 127 18
13 36 34 114 7 -4 32 -85
21 11 -13 62 9 -27 -33 -80
-8 52 4 -11 44 -32 -17 7
-9 28 5 -4 -49 -2 -6 -20
41 6 25 1 37 -36 -47 -14
127 8 -13 -1 -65 2 -15 11
-7 22 43 -127 -35 33 -99 82
-28 3 55 110 1 -113 60 94
46 21 15 -65 44 -67 -2 -8
-19 60 -63 -112 -110 45 89 61

sequential/model/block_11_project/Conv2D i1 [32, 1, 1, 192]
00000000: 3bda f6f0 23dd 2f28 e423 0cf0 5a22 f8d5
00000010: de67 1cf1 fb61 b224 001c 120f d201 d6f3
00000020: f6fa 1024 0eeb e0e5 5600 27dc b3e1 eb17
00000030: 231d 04e7 dc2c caff ee2d 11f9 f203 112c
00000040: e307 e3e1 080e f928 c7f6 1cb6 ee47 dc3a
00000050: fcab 16d4 26cd d005 defc ce22 fe08 f510
00000060: 2009 2fe3 447f fbff 11e2 1533 14dd da18
00000070: fdee fa26 fa46 fe16 5cf4 431e faf4 15f0
00000080: 21f3 4732 ff84 cb9d 6116 a8cb f945 fe1b
00000090: dce1 ce23 21fe 6cf0 f2f2 1df4 dff6 100d
000000a0: ec24 24f0 d80f 19bc 132c 2e55 cc41 20e4
000000b0: 2908 23e3 fe1a f813 3d23 f5dd c81e e32f
000000c0: e3e2 13fc 0bd9 eaa4 17f8 0b01 09cd 111a
000000d0: 688e 2f0a 139f d418 f2d2 f305 16c4 811a
000000e0: de43 e5fb 24b8 5bc8 1a04 0920 141f edf8
000000f0: f5fe 1712 fec8 36e9 04ea ebeb d10c f409
59 -38 -10 -16 35 -35 47 40
-28 35 12 -16 90 34 -8 -43
-34 103 28 -15 -5 97 -78 36
0 28 18 15 -46 1 -42 -13
-10 -6 16 36 14 -21 -32 -27
86 0 39 -36 -77 -31 -21 23
35 29 4 -25 -36 44 -54 -1
-18 45 17 -7 -14 3 17 44
-29 7 -29 -31 8 14 -7 40
-57 -10 28 -74 -18 71 -36 58
-4 -85 22 -44 38 -51 -48 5
-34 -4 -50 34 -2 8 -11 16
32 9 47 -29 68 127 -5 -1
17 -30 21 51 20 -35 -38 24
-3 -18 -6 38 -6 70 -2 22
92 -12 67 30 -6 -12 21 -16
33 -13 71 50 -1 -124 -53 -99
97 22 -88 -53 -7 69 -2 27
-36 -31 -50 35 33 -2 108 -16
-14 -14 29 -12 -33 -10 16 13
-20 36 36 -16 -40 15 25 -68
19 44 46 85 -52 65 32 -28
41 8 35 -29 -2 26 -8 19
61 35 -11 -35 -56 30 -29 47
-29 -30 19 -4 11 -39 -22 -92
23 -8 11 1 9 -51 17 26
104 -114 47 10 19 -97 -44 24
-14 -46 -13 5 22 -60 -127 26
-34 67 -27 -5 36 -72 91 -56
26 4 9 32 20 31 -19 -8
-11 -2 23 18 -2 -56 54 -23
4 -22 -21 -21 -47 12 -12 9

sequential/model/block_11_depthwise_BN/FusedBatchNormV3;sequential/model/block_11_depthwise/depthwise;sequential/model/block_13_depthwise/depthwise i1 [1, 3, 3, 192]
00000000: 21f9 0025 f1e5 20ce 13d0 f7ca a361 2842
00000010: 1ca3 f300 feee 17fe a91e 0dfb 263a f351
00000020: 0e04 08e8 c9eb de07 59fd e981 0b16 a8ee
00000030: dfec 2822 9fdc ef43 17ca de04 fd0e 030b
00000040: 45f3 48f6 06e7 f2e0 e723 35cc 0df9 2ee7
00000050: 364d 1e93 5def c73f 8803 f131 e529 fe04
00000060: 9e11 e1fe 16f0 f719 272d cee2 e56c 08b6
00000070: 1647 9711 bca3 1cff 0201 1808 0eec 070f
00000080: fe08 cc36 070f fcd3 03ed 04f7 4213 fd26
00000090: d606 f20c 3015 462d ae0d f5d6 e00c ed0d
000000a0: 117a f92a 0807 0edb ec1e 0ef4 93fb 1507
000000b0: e5e8 fd2b 2fe2 61d8 7b08 1701 f401 0537
000000c0: 0cc8 d47f 1f81 4c98 ef0a ef81 ba7f 30cb
000000d0: 6881 cf0a f504 2281 c20c e10f 8181 f07f
000000e0: 7f02 efa2 81fa 3c60 c428 32bf ae0b 7f24
000000f0: 8108 a37f 8900 b4bf bc47 8678 818f e731
33 -7 0 37 -15 -27 32 -50
19 -48 -9 -54 -93 97 40 66
28 -93 -13 0 -2 -18 23 -2
-87 30 13 -5 38 58 -13 81
14 4 8 -24 -55 -21 -34 7
89 -3 -23 -127 11 22 -88 -18
-33 -20 40 34 -97 -36 -17 67
23 -54 -34 4 -3 14 3 11
69 -13 72 -10 6 -25 -14 -32
-25 35 53 -52 13 -7 46 -25
54 77 30 -109 93 -17 -57 63
-120 3 -15 49 -27 41 -2 4
-98 17 -31 -2 22 -16 -9 25
39 45 -50 -30 -27 108 8 -74
22 71 -105 17 -68 -93 28 -1
2 1 24 8 14 -20 7 15
-2 8 -52 54 7 15 -4 -45
3 -19 4 -9 66 19 -3 38
-42 6 -14 12 48 21 70 45
-82 13 -11 -42 -32 12 -19 13
17 122 -7 42 8 7 14 -37
-20 30 14 -12 -109 -5 21 7
-27 -24 -3 43 47 -30 97 -40
123 8 23 1 -12 1 5 55
12 -56 -44 127 31 -127 76 -104
-17 10 -17 -127 -70 127 48 -53
104 -127 -49 10 -11 4 34 -127
-62 12 -31 15 -127 -127 -16 127
127 2 -17 -94 -127 -6 60 96
-60 40 50 -65 -82 11 127 36
-127 8 -93 127 -119 0 -76 -65
-68 71 -122 120 -127 -113 -25 49

sequential/model/block_11_expand/Conv2D i1 [192, 1, 1, 32]
00000000: 56ff 9181 ab2d 20de 149e 83c2 f1e1 20bf
00000010: b43e 3c08 1d25 4a26 d95a a298 ffbf fe1f
00000020: dd15 20c9 3d75 f335 3d85 0529 ad35 1181
00000030: e510 e1d0 4f01 d611 20a0 fe69 30d5 0b5f
00000040: 0617 fd3a 0cf2 0981 fff0 10fe 2106 cecf
00000050: ff0e da02 eeec e202 1f07 073c dddc 41ea
00000060: 0546 d20d 2ad1 c43b 0527 e825 f72c eab0
00000070: dd07 813e f60f ddf0 55cd 05f9 e5e8 e2eb
00000080: f5f4 d70b f4fc 0811 070d ca25 3e81 166d
00000090: 1add aef7 3720 1819 be00 10f6 bf0a 920d
000000a0: 3728 3f18 1d03 cf23 f081 4139 fe02 3d0a
000000b0: edb1 46e5 1588 f005 1f29 08c0 2801 dd3f
000000c0: e60c 1395 e1f3 f6c5 38d3 376d d8f1 e67f
000000d0: 0217 2efe e13d 031d 3818 de23 2ce1 c505
000000e0: 2d20 e23f cf13 7f12 3e1f eede 1025 1f04
000000f0: fce5 f642 0612 f5b3 20dd 0204 165a fb69
86 -1 -111 -127 -85 45 32 -34
20 -98 -125 -62 -15 -31 32 -65
-76 62 60 8 29 37 74 38
-39 90 -94 -104 -1 -65 -2 31
-35 21 32 -55 61 117 -13 53
61 -123 5 41 -83 53 17 -127
-27 16 -31 -48 79 1 -42 17
32 -96 -2 105 48 -43 11 95
6 23 -3 58 12 -14 9 -127
-1 -16 16 -2 33 6 -50 -49
-1 14 -38 2 -18 -20 -30 2
31 7 7 60 -35 -36 65 -22
5 70 -46 13 42 -47 -60 59
5 39 -24 37 -9 44 -22 -80
-35 7 -127 62 -10 15 -35 -16
85 -51 5 -7 -27 -24 -30 -21
-11 -12 -41 11 -12 -4 8 17
7 13 -54 37 62 -127 22 109
26 -35 -82 -9 55 32 24 25
-66 0 16 -10 -65 10 -110 13
55 40 63 24 29 3 -49 35
-16 -127 65 57 -2 2 61 10
-19 -79 70 -27 21 -120 -16 5
31 41 8 -64 40 1 -35 63
-26 12 19 -107 -31 -13 -10 -59
56 -45 55 109 -40 -15 -26 127
2 23 46 -2 -31 61 3 29
56 24 -34 35 44 -31 -59 5
45 32 -30 63 -49 19 127 18
62 31 -18 -34 16 37 31 4
-4 -27 -10 66 6 18 -11 -77
32 -35 2 4 22 90 -5 105

sequential/model/block_10_project/Conv2D i1 [32, 1, 1, 144]
00000000: 0fc4 2efa eee1 03d7 ef0a f310 0e18 0907
00000010: 0bf6 ccfb 0729 f10f ed2b 2139 fbf4 0ce4
00000020: f3e5 03dc f514 ec11 fb20 1881 1bfd fdfa
00000030: ea09 0a08 2a18 0ec9 fc0b da27 f428 f71b
00000040: 0909 cc06 05e8 e915 0e09 15d6 3cdc 0eeb
00000050: f9f5 eee5 5b10 0e01 1702 0de9 50fe 100a
00000060: 0407 0311 eaf8 122c 0e0a 07e8 fbe6 f80a
00000070: e6df 19fc fa03 f126 ae1c d20e cfd8 ef1d
00000080: 0cfc ff37 100b 09f3 f304 f2d8 0aee 0ffc
00000090: 9df8 fff2 fef7 0528 ecaa e437 f6f3 13d5
000000a0: daff 221b 10dd e2f8 29e9 55cf feea 303c
000000b0: 1f1a 071b fe71 edee d1e9 1ea4 f3fd 0205
000000c0: e5d4 f823 d809 0910 e7f2 e4d8 b47f f9e9
000000d0: ef17 a305 1910 3701 f000 c815 fbf5 0102
000000e0: 081f b0d9 c512 00e7 fedc e9fd 2b67 dd06
000000f0: 0443 0a05 f007 f106 f025 05d8 03f5 0110
15 -60 46 -6 -18 -31 3 -41
-17 10 -13 16 14 24 9 7
11 -10 -52 -5 7 41 -15 15
-19 43 33 57 -5 -12 12 -28
-13 -27 3 -36 -11 20 -20 17
-5 32 24 -127 27 -3 -3 -6
-22 9 10 8 42 24 14 -55
-4 11 -38 39 -12 40 -9 27
9 9 -52 6 5 -24 -23 21
14 9 21 -42 60 -36 14 -21
-7 -11 -18 -27 91 16 14 1
23 2 13 -23 80 -2 16 10
4 7 3 17 -22 -8 18 44
14 10 7 -24 -5 -26 -8 10
-26 -33 25 -4 -6 3 -15 38
-82 28 -46 14 -49 -40 -17 29
12 -4 -1 55 16 11 9 -13
-13 4 -14 -40 10 -18 15 -4
-99 -8 -1 -14 -2 -9 5 40
-20 -86 -28 55 -10 -13 19 -43
-38 -1 34 27 16 -35 -30 -8
41 -23 85 -49 -2 -22 48 60
31 26 7 27 -2 113 -19 -18
-47 -23 30 -92 -13 -3 2 5
-27 -44 -8 35 -40 9 9 16
-25 -14 -28 -40 -76 127 -7 -23
-17 23 -93 5 25 16 55 1
-16 0 -56 21 -5 -11 1 2
8 31 -80 -39 -59 18 0 -25
-2 -36 -23 -3 43 103 -35 6
4 67 10 5 -16 7 -15 6
-16 37 5 -40 3 -11 1 16

sequential/model/block_10_depthwise_BN/FusedBatchNormV3;sequential/model/block_10_depthwise/depthwise i1 [1, 3, 3, 144]
00000000: 0812 1316 f4f9 fa1b fc1b 5e1c 33ee c30f
00000010: e0f5 04f3 e701 19f9 030a fa04 f781 0501
00000020: f2ec 3f0c e9f9 2913 f412 1b07 e214 2a04
00000030: b50a eca2 f401 9f07 f536 01fe f301 d7f8
00000040: 3a04 0a81 00ed f016 3114 ff01 12be fd1f
00000050: 0614 e7fe f3ed ef00 e018 6011 fafa 9181
00000060: 351a e710 3bc8 1001 1534 f5fd fbfc f703
00000070: ff0c facc 9e0e 120e 0c00 0313 dc0d feff
00000080: f8fd 0118 0dff 18f8 ee0d c5f0 9ef3 fc2e
00000090: 1b35 d841 cc1f e439 1c29 622c 58f2 e93a
000000a0: 0a19 23e7 cf04 becd 2a20 e817 ae9d ea05
000000b0: f8f1 78e6 db0f 4538 03e3 3a06 fc0d 7fe9
000000c0: 8115 0cac 0d1d 9b16 df33 2ee9 d11e d01f
000000d0: 53df 3050 2328 dcf9 7ff3 feef 3481 0bc6
000000e0: 3741 dfe6 10bf 00f5 fbc4 6a7f e31d b62e
000000f0: 1436 301b 5420 130c 24e8 c02b f722 d90e
8 18 19 22 -12 -7 -6 27
-4 27 94 28 51 -18 -61 15
-32 -11 4 -13 -25 1 25 -7
3 10 -6 4 -9 -127 5 1
-14 -20 63 12 -23 -7 41 19
-12 18 27 7 -30 20 42 4
-75 10 -20 -94 -12 1 -97 7
-11 54 1 -2 -13 1 -41 -8
58 4 10 -127 0 -19 -16 22
49 20 -1 1 18 -66 -3 31
6 20 -25 -2 -13 -19 -17 0
-32 24 96 17 -6 -6 -111 -127
53 26 -25 16 59 -56 16 1
21 52 -11 -3 -5 -4 -9 3
-1 12 -6 -52 -98 14 18 14
12 0 3 19 -36 13 -2 -1
-8 -3 1 24 13 -1 24 -8
-18 13 -59 -16 -98 -13 -4 46
27 53 -40 65 -52 31 -28 57
28 41 98 44 88 -14 -23 58
10 25 35 -25 -49 4 -66 -51
42 32 -24 23 -82 -99 -22 5
-8 -15 120 -26 -37 15 69 56
3 -29 58 6 -4 13 127 -23
-127 21 12 -84 13 29 -101 22
-33 51 46 -23 -47 30 -48 31
83 -33 48 80 35 40 -36 -7
127 -13 -2 -17 52 -127 11 -58
55 65 -33 -26 16 -65 0 -11
-5 -60 106 127 -29 29 -74 46
20 54 48 27 84 32 19 12
36 -24 -64 43 -9 34 -39 14

sequential/model/block_10_expand/Conv2D i1 [144, 1, 1, 24]
00000000: 0bfe a00c e709 dc09 4ff5 0d01 14c2 7ff6
00000010: fcb9 bbf7 ea54 dbb1 fa10 0c1f 15cc ebc0
00000020: 0d24 9f35 1bd8 07f8 e668 daea 7f42 f9ff
00000030: 200a c7ff 81de 180a e418 09f1 e42d e90b
00000040: ed2d 0628 0a21 0e28 e9c2 8afa 2d21 f11a
00000050: fe81 1bf6 342c cee9 bc2b 1e23 06fb eccf
00000060: eadb 34fd cb7f 11e7 1bf2 fae9 2bf9 46f5
00000070: 1c29 e317 16ca 37d6 0926 7f2e 243a f337
00000080: eee4 e2e5 0d05 b41d ef2d ea14 2006 e504
00000090: e805 0911 fdf5 c71c 860e f1fa e6e6 fa07
000000a0: f313 e411 ef19 df81 e6ec 4500 dd20 31ff
000000b0: 76d2 1127 d863 0a1f f411 6a4a f82b 0d81
000000c0: 2273 92fa 023e dc07 a1e2 c519 0c4d e050
000000d0: de4f f5c0 7fe0 f159 e9c6 1745 0181 d41d
000000e0: c2d9 f7cc f0db ee0a e4f0 b738 03eb da3d
000000f0: 2ecc 1a70 31f3 2e41 eba4 e71b eb32 7c7f
11 -2 -96 12 -25 9 -36 9
79 -11 13 1 20 -62 127 -10
-4 -71 -69 -9 -22 84 -37 -79
-6 16 12 31 21 -52 -21 -64
13 36 -97 53 27 -40 7 -8
-26 104 -38 -22 127 66 -7 -1
32 10 -57 -1 -127 -34 24 10
-28 24 9 -15 -28 45 -23 11
-19 45 6 40 10 33 14 40
-23 -62 -118 -6 45 33 -15 26
-2 -127 27 -10 52 44 -50 -23
-68 43 30 35 6 -5 -20 -49
-22 -37 52 -3 -53 127 17 -25
27 -14 -6 -23 43 -7 70 -11
28 41 -29 23 22 -54 55 -42
9 38 127 46 36 58 -13 55
-18 -28 -30 -27 13 5 -76 29
-17 45 -22 20 32 6 -27 4
-24 5 9 17 -3 -11 -57 28
-122 14 -15 -6 -26 -26 -6 7
-13 19 -28 17 -17 25 -33 -127
-26 -20 69 0 -35 32 49 -1
118 -46 17 39 -40 99 10 31
-12 17 106 74 -8 43 13 -127
34 115 -110 -6 2 62 -36 7
-95 -30 -59 25 12 77 -32 80
-34 79 -11 -64 127 -32 -15 89
-23 -58 23 69 1 -127 -44 29
-62 -39 -9 -52 -16 -37 -18 10
-28 -16 -73 56 3 -21 -38 61
46 -52 26 112 49 -13 46 65
-21 -92 -25 27 -21 50 124 127

sequential/model/block_9_project/Conv2D i1 [24, 1, 1, 144]
00000000: e52e 02fd 061c fe0a f402 dff9 f7e6 f6d9
00000010: 110b e801 14fc 020c 1512 0feb e70f f2f2
00000020: 03fb f0e8 0ef0 1209 f0fc 08f1 1911 1a18
00000030: d30a 1102 22f5 0cfc 1522 5ef4 fd17 19ee
00000040: 13ff 7ff0 0a08 dfe8 0210 040d 0e09 dfe0
00000050: 0b28 fe19 0f03 e30f fa19 e017 f6f9 cb15
00000060: 0c01 ef02 0f15 e109 fe08 6b1b 0dff ef2b
00000070: ea03 c900 f600 0afb d5fe e509 eaf7 06e2
00000080: 1ae9 0f11 f131 f9fc f812 1207 09df ec11
00000090: 7fde fa07 032d 09e9 1212 020a f4fc eafa
000000a0: f5fa 1322 feec e7f3 c9e9 f628 daff fefb
000000b0: c0cc e422 03c5 09ed 0161 dc12 0509 e509
000000c0: db10 e493 0d17 d516 094b ecf1 cae6 df24
000000d0: 05e9 0826 1fcc 1ae6 d9f6 2806 071d ea1e
000000e0: 1bd4 2625 e2de cb38 bcdf dde4 bcfc 231d
000000f0: 18df f400 e6ff 1ce5 fdd7 2092 fa23 f4da
-27 46 2 -3 6 28 -2 10
-12 2 -33 -7 -9 -26 -10 -39
17 11 -24 1 20 -4 2 12
21 18 15 -21 -25 15 -14 -14
3 -5 -16 -24 14 -16 18 9
-16 -4 8 -15 25 17 26 24
-45 10 17 2 34 -11 12 -4
21 34 94 -12 -3 23 25 -18
19 -1 127 -16 10 8 -33 -24
2 16 4 13 14 9 -33 -32
11 40 -2 25 15 3 -29 15
-6 25 -32 23 -10 -7 -53 21
12 1 -17 2 15 21 -31 9
-2 8 107 27 13 -1 -17 43
-22 3 -55 0 -10 0 10 -5
-43 -2 -27 9 -22 -9 6 -30
26 -23 15 17 -15 49 -7 -4
-8 18 18 7 9 -33 -20 17
127 -34 -6 7 3 45 9 -23
18 18 2 10 -12 -4 -22 -6
-11 -6 19 34 -2 -20 -25 -13
-55 -23 -10 40 -38 -1 -2 -5
-64 -52 -28 34 3 -59 9 -19
1 97 -36 18 5 9 -27 9
-37 16 -28 -109 13 23 -43 22
9 75 -20 -15 -54 -26 -33 36
5 -23 8 38 31 -52 26 -26
-39 -10 40 6 7 29 -22 30
27 -44 38 37 -30 -34 -53 56
-68 -33 -35 -28 -68 -4 35 29
24 -33 -12 0 -26 -1 28 -27
-3 -41 32 -110 -6 35 -12 -38
